…
I1112 13:05:15.592391  4981 net.cpp:210] This network produces output c_T
I1112 13:05:15.592403  4981 net.cpp:210] This network produces output h
I1112 13:05:15.592425  4981 net.cpp:470] Collecting Learning Rate and Weight Decay.
I1112 13:05:15.592444  4981 net.cpp:223] Network initialization done.
I1112 13:05:15.592455  4981 net.cpp:224] Memory required for data: 84012
I1112 13:05:15.592514  4981 lstm_layer.cpp:237] Adding parameter 0: W_xc
I1112 13:05:15.592528  4981 lstm_layer.cpp:237] Adding parameter 1: b
I1112 13:05:15.592541  4981 lstm_layer.cpp:237] Adding parameter 2: W_hc
I1112 13:05:15.592582  4981 net.cpp:104] Top shape: 1 1000 1 1 (1000)
I1112 13:05:15.592607  4981 layer_factory.hpp:78] Creating layer lstm4
I1112 13:05:15.592625  4981 net.cpp:68] Creating Layer lstm4
I1112 13:05:15.592639  4981 net.cpp:398] lstm4 <- lstm3
I1112 13:05:15.592653  4981 net.cpp:398] lstm4 <- cont_sentence_input_1_split_3
I1112 13:05:15.592669  4981 net.cpp:360] lstm4 -> lstm4
I1112 13:05:15.592686  4981 net.cpp:97] Setting up lstm4
I1112 13:05:15.592705  4981 lstm_layer.cpp:79] Initializing LSTM: assuming input batch contains 1 timesteps of 1 streams.
I1112 13:05:15.592878  4981 net.cpp:39] Initializing net from parameters:
layers {
  bottom: "flush"
  top: "flush_0"
  name: "lstm4_flush slice"
  type: SLICE
  slice_param {
    slice_dim: 0
  }
}
layers {
  bottom: "x"
  top: "x_transformed"
  name: "lstm4_x_transform"
  type: INNER_PRODUCT
  inner_product_param {
    num_output: 4000
    bias_term: true
    weight_filler {
    }
    bias_filler {
    }
  }
  param: "W_xc"
  param: "b"
}
layers {
  bottom: "x_transformed"
  top: "x_transformed_1"
  name: "lstm4_x_transformed_slice"
  type: SLICE
  slice_param {
    slice_dim: 0
  }
}
layers {
  bottom: "h_0"
  bottom: "flush_0"
  top: "h_0_flushed"
  name: "lstm4_h_0 flush"
  type: ELTWISE
  eltwise_param {
    operation: SUM
    coeff_blob: true
  }
}
layers {
  bottom: "h_0_flushed"
  top: "h_transformed_0"
  name: "lstm4_transform_1"
  type: INNER_PRODUCT
  inner_product_param {
    num_output: 4000
    bias_term: false
    weight_filler {
    }
  }
  param: "W_hc"
}
layers {
  bottom: "x_transformed_1"
  bottom: "h_transformed_0"
  top: "gate_input_1"
  name: "lstm4_input_sum_1"
  type: ELTWISE
  eltwise_param {
    operation: SUM
  }
}
layers {
  bottom: "c_0"
  bottom: "gate_input_1"
  bottom: "flush_0"
  top: "c_1"
  top: "h_1"
  name: "lstm4_unit_1"
  type: LSTM_UNIT
}
layers {
  bottom: "c_1"
  top: "c_T"
  name: "lstm4_"
  type: SPLIT
}
layers {
  bottom: "h_1"
  top: "h"
  name: "lstm4_h_concat"
  type: CONCAT
  concat_param {
    concat_dim: 0
  }
  has_external_diff: true
}
input: "x"
input: "flush"
input: "c_0"
input: "h_0"
input_dim: 1
input_dim: 1000
input_dim: 1
input_dim: 1
input_dim: 1
input_dim: 1
input_dim: 1
input_dim: 1
input_dim: 1
input_dim: 1000
input_dim: 1
input_dim: 1
input_dim: 1
input_dim: 1000
input_dim: 1
input_dim: 1
force_backward: true
I1112 13:05:15.593466  4981 net.cpp:362] Input 0 -> x
I1112 13:05:15.593489  4981 net.cpp:362] Input 1 -> flush
I1112 13:05:15.593505  4981 net.cpp:362] Input 2 -> c_0
I1112 13:05:15.593523  4981 net.cpp:362] Input 3 -> h_0
I1112 13:05:15.593544  4981 layer_factory.hpp:78] Creating layer lstm4_flush slice
I1112 13:05:15.593564  4981 net.cpp:68] Creating Layer lstm4_flush slice
I1112 13:05:15.593579  4981 net.cpp:398] lstm4_flush slice <- flush
I1112 13:05:15.593595  4981 net.cpp:360] lstm4_flush slice -> flush_0
I1112 13:05:15.593611  4981 net.cpp:97] Setting up lstm4_flush slice
I1112 13:05:15.593626  4981 net.cpp:104] Top shape: 1 1 1 1 (1)
I1112 13:05:15.593639  4981 layer_factory.hpp:78] Creating layer flush_0_lstm4_flush slice_0_split
I1112 13:05:15.593654  4981 net.cpp:68] Creating Layer flush_0_lstm4_flush slice_0_split
I1112 13:05:15.593667  4981 net.cpp:398] flush_0_lstm4_flush slice_0_split <- flush_0
I1112 13:05:15.593684  4981 net.cpp:360] flush_0_lstm4_flush slice_0_split -> flush_0_lstm4_flush slice_0_split_0
I1112 13:05:15.593703  4981 net.cpp:360] flush_0_lstm4_flush slice_0_split -> flush_0_lstm4_flush slice_0_split_1
I1112 13:05:15.593719  4981 net.cpp:97] Setting up flush_0_lstm4_flush slice_0_split
I1112 13:05:15.593731  4981 net.cpp:104] Top shape: 1 1 1 1 (1)
I1112 13:05:15.593744  4981 net.cpp:104] Top shape: 1 1 1 1 (1)
I1112 13:05:15.593756  4981 layer_factory.hpp:78] Creating layer lstm4_x_transform
I1112 13:05:15.593773  4981 net.cpp:68] Creating Layer lstm4_x_transform
I1112 13:05:15.593786  4981 net.cpp:398] lstm4_x_transform <- x
I1112 13:05:15.593801  4981 net.cpp:360] lstm4_x_transform -> x_transformed
I1112 13:05:15.593816  4981 net.cpp:97] Setting up lstm4_x_transform
I1112 13:05:15.608818  4981 net.cpp:104] Top shape: 1 4000 1 1 (4000)
I1112 13:05:15.608893  4981 layer_factory.hpp:78] Creating layer lstm4_x_transformed_slice
I1112 13:05:15.608924  4981 net.cpp:68] Creating Layer lstm4_x_transformed_slice
I1112 13:05:15.608942  4981 net.cpp:398] lstm4_x_transformed_slice <- x_transformed
I1112 13:05:15.608968  4981 net.cpp:360] lstm4_x_transformed_slice -> x_transformed_1
I1112 13:05:15.608994  4981 net.cpp:97] Setting up lstm4_x_transformed_slice
I1112 13:05:15.609009  4981 net.cpp:104] Top shape: 1 4000 1 1 (4000)
I1112 13:05:15.609021  4981 layer_factory.hpp:78] Creating layer lstm4_h_0 flush
I1112 13:05:15.609040  4981 net.cpp:68] Creating Layer lstm4_h_0 flush
I1112 13:05:15.609053  4981 net.cpp:398] lstm4_h_0 flush <- h_0
I1112 13:05:15.609067  4981 net.cpp:398] lstm4_h_0 flush <- flush_0_lstm4_flush slice_0_split_0
I1112 13:05:15.609089  4981 net.cpp:360] lstm4_h_0 flush -> h_0_flushed
I1112 13:05:15.609108  4981 net.cpp:97] Setting up lstm4_h_0 flush
I1112 13:05:15.609123  4981 net.cpp:104] Top shape: 1 1000 1 1 (1000)
I1112 13:05:15.609135  4981 layer_factory.hpp:78] Creating layer lstm4_transform_1
I1112 13:05:15.609153  4981 net.cpp:68] Creating Layer lstm4_transform_1
I1112 13:05:15.609165  4981 net.cpp:398] lstm4_transform_1 <- h_0_flushed
I1112 13:05:15.609184  4981 net.cpp:360] lstm4_transform_1 -> h_transformed_0
I1112 13:05:15.609200  4981 net.cpp:97] Setting up lstm4_transform_1
I1112 13:05:15.624011  4981 net.cpp:104] Top shape: 1 4000 1 1 (4000)
I1112 13:05:15.624078  4981 layer_factory.hpp:78] Creating layer lstm4_input_sum_1
I1112 13:05:15.624109  4981 net.cpp:68] Creating Layer lstm4_input_sum_1
I1112 13:05:15.624126  4981 net.cpp:398] lstm4_input_sum_1 <- x_transformed_1
I1112 13:05:15.624145  4981 net.cpp:398] lstm4_input_sum_1 <- h_transformed_0
I1112 13:05:15.624163  4981 net.cpp:360] lstm4_input_sum_1 -> gate_input_1
I1112 13:05:15.624184  4981 net.cpp:97] Setting up lstm4_input_sum_1
I1112 13:05:15.624200  4981 net.cpp:104] Top shape: 1 4000 1 1 (4000)
I1112 13:05:15.624215  4981 layer_factory.hpp:78] Creating layer lstm4_unit_1
I1112 13:05:15.624234  4981 net.cpp:68] Creating Layer lstm4_unit_1
I1112 13:05:15.624423  4981 net.cpp:398] lstm4_unit_1 <- c_0
I1112 13:05:15.624441  4981 net.cpp:398] lstm4_unit_1 <- gate_input_1
I1112 13:05:15.624454  4981 net.cpp:398] lstm4_unit_1 <- flush_0_lstm4_flush slice_0_split_1
I1112 13:05:15.624469  4981 net.cpp:360] lstm4_unit_1 -> c_1
I1112 13:05:15.624486  4981 net.cpp:360] lstm4_unit_1 -> h_1
I1112 13:05:15.624501  4981 net.cpp:97] Setting up lstm4_unit_1
I1112 13:05:15.624516  4981 net.cpp:104] Top shape: 1 1000 1 1 (1000)
I1112 13:05:15.624528  4981 net.cpp:104] Top shape: 1 1000 1 1 (1000)
I1112 13:05:15.624541  4981 layer_factory.hpp:78] Creating layer lstm4_
I1112 13:05:15.624557  4981 net.cpp:68] Creating Layer lstm4_
I1112 13:05:15.624570  4981 net.cpp:398] lstm4_ <- c_1
I1112 13:05:15.624588  4981 net.cpp:360] lstm4_ -> c_T
I1112 13:05:15.624603  4981 net.cpp:97] Setting up lstm4_
I1112 13:05:15.624616  4981 net.cpp:104] Top shape: 1 1000 1 1 (1000)
I1112 13:05:15.624629  4981 layer_factory.hpp:78] Creating layer lstm4_h_concat
I1112 13:05:15.624647  4981 net.cpp:68] Creating Layer lstm4_h_concat
I1112 13:05:15.624660  4981 net.cpp:398] lstm4_h_concat <- h_1
I1112 13:05:15.624675  4981 net.cpp:360] lstm4_h_concat -> h
I1112 13:05:15.624691  4981 net.cpp:97] Setting up lstm4_h_concat
I1112 13:05:15.624706  4981 net.cpp:104] Top shape: 1 1000 1 1 (1000)
I1112 13:05:15.624717  4981 net.cpp:172] lstm4_h_concat needs backward computation.
I1112 13:05:15.624730  4981 net.cpp:174] lstm4_ does not need backward computation.
I1112 13:05:15.624742  4981 net.cpp:172] lstm4_unit_1 needs backward computation.
I1112 13:05:15.624754  4981 net.cpp:172] lstm4_input_sum_1 needs backward computation.
I1112 13:05:15.624766  4981 net.cpp:172] lstm4_transform_1 needs backward computation.
…
    pdb.interaction(None, t)
  File "/home/jdonahue/anaconda/lib/python2.7/pdb.py", line 210, in interaction
    self.cmdloop()
  File "/home/jdonahue/anaconda/lib/python2.7/cmd.py", line 130, in cmdloop
    line = raw_input(self.prompt)
KeyboardInterrupt
[/home/jdonahue/caffe/examples/lstm/flickr 117]$ python -m pdb ./flickr_beam_search.py
> /home/jdonahue/caffe/examples/lstm/flickr/flickr_beam_search.py(3)<module>()
-> DEVICE_ID = 1
(Pdb) c
WARNING: Logging before InitGoogleLogging() is written to STDERR
I1112 13:06:06.313190  8383 net.cpp:39] Initializing net from parameters:
name: "caffenet_to_fc8"
layers {
  bottom: "data"
  top: "conv1"
  name: "conv1"
  type: CONVOLUTION
  blobs_lr: 0
  blobs_lr: 0
  convolution_param {
    num_output: 96
    kernel_size: 11
    stride: 4
  }
}
layers {
  bottom: "conv1"
  top: "conv1"
  name: "relu1"
  type: RELU
}
layers {
  bottom: "conv1"
  top: "pool1"
  name: "pool1"
  type: POOLING
  pooling_param {
    pool: MAX
    kernel_size: 3
    stride: 2
  }
}
layers {
  bottom: "pool1"
  top: "norm1"
  name: "norm1"
  type: LRN
  lrn_param {
    local_size: 5
    alpha: 0.0001
    beta: 0.75
  }
}
layers {
  bottom: "norm1"
  top: "conv2"
  name: "conv2"
  type: CONVOLUTION
  blobs_lr: 0
  blobs_lr: 0
  convolution_param {
    num_output: 256
    pad: 2
    kernel_size: 5
    group: 2
  }
}
layers {
  bottom: "conv2"
  top: "conv2"
  name: "relu2"
  type: RELU
}
layers {
  bottom: "conv2"
  top: "pool2"
  name: "pool2"
  type: POOLING
  pooling_param {
    pool: MAX
    kernel_size: 3
    stride: 2
  }
}
layers {
  bottom: "pool2"
  top: "norm2"
  name: "norm2"
  type: LRN
  lrn_param {
    local_size: 5
    alpha: 0.0001
    beta: 0.75
  }
}
layers {
  bottom: "norm2"
  top: "conv3"
  name: "conv3"
  type: CONVOLUTION
  blobs_lr: 0
  blobs_lr: 0
  convolution_param {
    num_output: 384
    pad: 1
    kernel_size: 3
  }
}
layers {
  bottom: "conv3"
  top: "conv3"
  name: "relu3"
  type: RELU
}
layers {
  bottom: "conv3"
  top: "conv4"
  name: "conv4"
  type: CONVOLUTION
  blobs_lr: 0
  blobs_lr: 0
  convolution_param {
    num_output: 384
    pad: 1
    kernel_size: 3
    group: 2
  }
}
layers {
  bottom: "conv4"
  top: "conv4"
  name: "relu4"
  type: RELU
}
layers {
  bottom: "conv4"
  top: "conv5"
  name: "conv5"
  type: CONVOLUTION
  blobs_lr: 0
  blobs_lr: 0
  convolution_param {
    num_output: 256
    pad: 1
    kernel_size: 3
    group: 2
  }
}
layers {
  bottom: "conv5"
  top: "conv5"
  name: "relu5"
  type: RELU
}
layers {
  bottom: "conv5"
  top: "pool5"
  name: "pool5"
  type: POOLING
  pooling_param {
    pool: MAX
    kernel_size: 3
    stride: 2
  }
}
layers {
  bottom: "pool5"
  top: "fc6"
  name: "fc6"
  type: INNER_PRODUCT
  inner_product_param {
    num_output: 4096
  }
}
layers {
  bottom: "fc6"
  top: "fc6"
  name: "relu6"
  type: RELU
}
layers {
  bottom: "fc6"
  top: "fc6"
  name: "drop6"
  type: DROPOUT
  dropout_param {
    dropout_ratio: 0.5
  }
}
layers {
  bottom: "fc6"
  top: "fc7"
  name: "fc7"
  type: INNER_PRODUCT
  blobs_lr: 0
  blobs_lr: 0
  inner_product_param {
    num_output: 4096
  }
}
layers {
  bottom: "fc7"
  top: "fc7"
  name: "relu7"
  type: RELU
}
layers {
  bottom: "fc7"
  top: "fc8"
  name: "fc8"
  type: INNER_PRODUCT
  blobs_lr: 0
  blobs_lr: 0
  inner_product_param {
    num_output: 1000
  }
}
input: "data"
input_dim: 1
input_dim: 3
input_dim: 224
input_dim: 224
I1112 13:06:06.314311  8383 net.cpp:362] Input 0 -> data
I1112 13:06:06.314375  8383 layer_factory.hpp:78] Creating layer conv1
I1112 13:06:06.314399  8383 net.cpp:68] Creating Layer conv1
I1112 13:06:06.314415  8383 net.cpp:398] conv1 <- data
I1112 13:06:06.314431  8383 net.cpp:360] conv1 -> conv1
I1112 13:06:06.314457  8383 net.cpp:97] Setting up conv1
I1112 13:06:06.314627  8383 net.cpp:104] Top shape: 1 96 54 54 (279936)
I1112 13:06:06.314666  8383 layer_factory.hpp:78] Creating layer relu1
I1112 13:06:06.314683  8383 net.cpp:68] Creating Layer relu1
I1112 13:06:06.314697  8383 net.cpp:398] relu1 <- conv1
I1112 13:06:06.314714  8383 net.cpp:349] relu1 -> conv1 (in-place)
I1112 13:06:06.314730  8383 net.cpp:97] Setting up relu1
I1112 13:06:06.314743  8383 net.cpp:104] Top shape: 1 96 54 54 (279936)
I1112 13:06:06.314755  8383 layer_factory.hpp:78] Creating layer pool1
I1112 13:06:06.314771  8383 net.cpp:68] Creating Layer pool1
I1112 13:06:06.314784  8383 net.cpp:398] pool1 <- conv1
I1112 13:06:06.314797  8383 net.cpp:360] pool1 -> pool1
I1112 13:06:06.314813  8383 net.cpp:97] Setting up pool1
I1112 13:06:06.314836  8383 net.cpp:104] Top shape: 1 96 27 27 (69984)
I1112 13:06:06.314858  8383 layer_factory.hpp:78] Creating layer norm1
I1112 13:06:06.314877  8383 net.cpp:68] Creating Layer norm1
I1112 13:06:06.314890  8383 net.cpp:398] norm1 <- pool1
I1112 13:06:06.314908  8383 net.cpp:360] norm1 -> norm1
I1112 13:06:06.314925  8383 net.cpp:97] Setting up norm1
I1112 13:06:06.314944  8383 net.cpp:104] Top shape: 1 96 27 27 (69984)
I1112 13:06:06.314959  8383 layer_factory.hpp:78] Creating layer conv2
I1112 13:06:06.314973  8383 net.cpp:68] Creating Layer conv2
I1112 13:06:06.314986  8383 net.cpp:398] conv2 <- norm1
I1112 13:06:06.315006  8383 net.cpp:360] conv2 -> conv2
I1112 13:06:06.315023  8383 net.cpp:97] Setting up conv2
I1112 13:06:06.316001  8383 net.cpp:104] Top shape: 1 256 27 27 (186624)
I1112 13:06:06.316032  8383 layer_factory.hpp:78] Creating layer relu2
I1112 13:06:06.316048  8383 net.cpp:68] Creating Layer relu2
I1112 13:06:06.316061  8383 net.cpp:398] relu2 <- conv2
I1112 13:06:06.316076  8383 net.cpp:349] relu2 -> conv2 (in-place)
I1112 13:06:06.316090  8383 net.cpp:97] Setting up relu2
I1112 13:06:06.316102  8383 net.cpp:104] Top shape: 1 256 27 27 (186624)
I1112 13:06:06.316114  8383 layer_factory.hpp:78] Creating layer pool2
I1112 13:06:06.316128  8383 net.cpp:68] Creating Layer pool2
I1112 13:06:06.316139  8383 net.cpp:398] pool2 <- conv2
I1112 13:06:06.316157  8383 net.cpp:360] pool2 -> pool2
I1112 13:06:06.316174  8383 net.cpp:97] Setting up pool2
I1112 13:06:06.316187  8383 net.cpp:104] Top shape: 1 256 13 13 (43264)
I1112 13:06:06.316200  8383 layer_factory.hpp:78] Creating layer norm2
I1112 13:06:06.316216  8383 net.cpp:68] Creating Layer norm2
I1112 13:06:06.316228  8383 net.cpp:398] norm2 <- pool2
I1112 13:06:06.316242  8383 net.cpp:360] norm2 -> norm2
I1112 13:06:06.316257  8383 net.cpp:97] Setting up norm2
I1112 13:06:06.316270  8383 net.cpp:104] Top shape: 1 256 13 13 (43264)
I1112 13:06:06.316282  8383 layer_factory.hpp:78] Creating layer conv3
I1112 13:06:06.316300  8383 net.cpp:68] Creating Layer conv3
I1112 13:06:06.316313  8383 net.cpp:398] conv3 <- norm2
I1112 13:06:06.316328  8383 net.cpp:360] conv3 -> conv3
I1112 13:06:06.316342  8383 net.cpp:97] Setting up conv3
I1112 13:06:06.319838  8383 net.cpp:104] Top shape: 1 384 13 13 (64896)
I1112 13:06:06.319867  8383 layer_factory.hpp:78] Creating layer relu3
I1112 13:06:06.319887  8383 net.cpp:68] Creating Layer relu3
I1112 13:06:06.319905  8383 net.cpp:398] relu3 <- conv3
I1112 13:06:06.319921  8383 net.cpp:349] relu3 -> conv3 (in-place)
I1112 13:06:06.319934  8383 net.cpp:97] Setting up relu3
I1112 13:06:06.319947  8383 net.cpp:104] Top shape: 1 384 13 13 (64896)
I1112 13:06:06.319959  8383 layer_factory.hpp:78] Creating layer conv4
I1112 13:06:06.319972  8383 net.cpp:68] Creating Layer conv4
I1112 13:06:06.319984  8383 net.cpp:398] conv4 <- conv3
I1112 13:06:06.319999  8383 net.cpp:360] conv4 -> conv4
I1112 13:06:06.320015  8383 net.cpp:97] Setting up conv4
I1112 13:06:06.322646  8383 net.cpp:104] Top shape: 1 384 13 13 (64896)
I1112 13:06:06.322674  8383 layer_factory.hpp:78] Creating layer relu4
I1112 13:06:06.322691  8383 net.cpp:68] Creating Layer relu4
I1112 13:06:06.322705  8383 net.cpp:398] relu4 <- conv4
I1112 13:06:06.322724  8383 net.cpp:349] relu4 -> conv4 (in-place)
I1112 13:06:06.322741  8383 net.cpp:97] Setting up relu4
I1112 13:06:06.322752  8383 net.cpp:104] Top shape: 1 384 13 13 (64896)
I1112 13:06:06.322764  8383 layer_factory.hpp:78] Creating layer conv5
I1112 13:06:06.322779  8383 net.cpp:68] Creating Layer conv5
I1112 13:06:06.322792  8383 net.cpp:398] conv5 <- conv4
I1112 13:06:06.322806  8383 net.cpp:360] conv5 -> conv5
I1112 13:06:06.322821  8383 net.cpp:97] Setting up conv5
I1112 13:06:06.324589  8383 net.cpp:104] Top shape: 1 256 13 13 (43264)
I1112 13:06:06.324626  8383 layer_factory.hpp:78] Creating layer relu5
I1112 13:06:06.324743  8383 net.cpp:68] Creating Layer relu5
I1112 13:06:06.324755  8383 net.cpp:398] relu5 <- conv5
I1112 13:06:06.324782  8383 net.cpp:349] relu5 -> conv5 (in-place)
I1112 13:06:06.324797  8383 net.cpp:97] Setting up relu5
I1112 13:06:06.324810  8383 net.cpp:104] Top shape: 1 256 13 13 (43264)
I1112 13:06:06.324821  8383 layer_factory.hpp:78] Creating layer pool5
I1112 13:06:06.324836  8383 net.cpp:68] Creating Layer pool5
I1112 13:06:06.324847  8383 net.cpp:398] pool5 <- conv5
I1112 13:06:06.324862  8383 net.cpp:360] pool5 -> pool5
I1112 13:06:06.324877  8383 net.cpp:97] Setting up pool5
I1112 13:06:06.324892  8383 net.cpp:104] Top shape: 1 256 6 6 (9216)
I1112 13:06:06.324903  8383 layer_factory.hpp:78] Creating layer fc6
I1112 13:06:06.324921  8383 net.cpp:68] Creating Layer fc6
I1112 13:06:06.324934  8383 net.cpp:398] fc6 <- pool5
I1112 13:06:06.324949  8383 net.cpp:360] fc6 -> fc6
I1112 13:06:06.324965  8383 net.cpp:97] Setting up fc6
I1112 13:06:06.477370  8383 net.cpp:104] Top shape: 1 4096 1 1 (4096)
I1112 13:06:06.477581  8383 layer_factory.hpp:78] Creating layer relu6
I1112 13:06:06.477955  8383 net.cpp:68] Creating Layer relu6
I1112 13:06:06.478102  8383 net.cpp:398] relu6 <- fc6
I1112 13:06:06.478127  8383 net.cpp:349] relu6 -> fc6 (in-place)
I1112 13:06:06.478150  8383 net.cpp:97] Setting up relu6
I1112 13:06:06.478164  8383 net.cpp:104] Top shape: 1 4096 1 1 (4096)
I1112 13:06:06.478178  8383 layer_factory.hpp:78] Creating layer drop6
I1112 13:06:06.478202  8383 net.cpp:68] Creating Layer drop6
I1112 13:06:06.478215  8383 net.cpp:398] drop6 <- fc6
I1112 13:06:06.478231  8383 net.cpp:349] drop6 -> fc6 (in-place)
I1112 13:06:06.478246  8383 net.cpp:97] Setting up drop6
I1112 13:06:06.478267  8383 net.cpp:104] Top shape: 1 4096 1 1 (4096)
I1112 13:06:06.478281  8383 layer_factory.hpp:78] Creating layer fc7
I1112 13:06:06.478296  8383 net.cpp:68] Creating Layer fc7
I1112 13:06:06.478309  8383 net.cpp:398] fc7 <- fc6
I1112 13:06:06.478324  8383 net.cpp:360] fc7 -> fc7
I1112 13:06:06.478343  8383 net.cpp:97] Setting up fc7
I1112 13:06:06.544915  8383 net.cpp:104] Top shape: 1 4096 1 1 (4096)
I1112 13:06:06.544996  8383 layer_factory.hpp:78] Creating layer relu7
I1112 13:06:06.545024  8383 net.cpp:68] Creating Layer relu7
I1112 13:06:06.545042  8383 net.cpp:398] relu7 <- fc7
I1112 13:06:06.545061  8383 net.cpp:349] relu7 -> fc7 (in-place)
I1112 13:06:06.545085  8383 net.cpp:97] Setting up relu7
I1112 13:06:06.545100  8383 net.cpp:104] Top shape: 1 4096 1 1 (4096)
I1112 13:06:06.545282  8383 layer_factory.hpp:78] Creating layer fc8
I1112 13:06:06.545301  8383 net.cpp:68] Creating Layer fc8
I1112 13:06:06.545315  8383 net.cpp:398] fc8 <- fc7
I1112 13:06:06.545328  8383 net.cpp:360] fc8 -> fc8
I1112 13:06:06.545348  8383 net.cpp:97] Setting up fc8
I1112 13:06:06.561444  8383 net.cpp:104] Top shape: 1 1000 1 1 (1000)
I1112 13:06:06.561496  8383 net.cpp:174] fc8 does not need backward computation.
I1112 13:06:06.561511  8383 net.cpp:174] relu7 does not need backward computation.
I1112 13:06:06.561522  8383 net.cpp:174] fc7 does not need backward computation.
I1112 13:06:06.561535  8383 net.cpp:174] drop6 does not need backward computation.
I1112 13:06:06.561656  8383 net.cpp:174] relu6 does not need backward computation.
…
I1112 13:06:06.561925  8383 net.cpp:223] Network initialization done.
I1112 13:06:06.561936  8383 net.cpp:224] Memory required for data: 6145696
libprotobuf WARNING google/protobuf/io/coded_stream.cc:487] Reading dangerously large protocol message.  If the message turns out to be
 larger than 2147483647 bytes, parsing will be halted for security reasons.  To increase the limit (or to disable these warnings), see
CodedInputStream::SetTotalBytesLimit() in google/protobuf/io/coded_stream.h.
I1112 13:06:09.421584  8383 net.cpp:39] Initializing net from parameters:
name: "caffenet_to_lstm"
layers {
  bottom: "input_sentence"
  top: "embedded_input_sentence"
  name: "embedding"
  type: INNER_PRODUCT
  blobs_lr: 1
  inner_product_param {
    num_output: 1000
    bias_term: false
    index_input_dim: 41719
  }
}
layers {
  bottom: "embedded_input_sentence"
  bottom: "cont_sentence"
  top: "lstm1"
  name: "lstm1"
  type: LSTM
  lstm_param {
    hidden_dim: 1000
    buffer_size: 1
  }
}
layers {
  bottom: "lstm1"
  bottom: "image_features"
  top: "lstm2_input"
  name: "lstm2_input"
  type: CONCAT
}
layers {
  bottom: "lstm2_input"
  bottom: "cont_sentence"
  top: "lstm2"
  name: "lstm2"
  type: LSTM
  lstm_param {
    hidden_dim: 1000
    buffer_size: 1
  }
}
layers {
  bottom: "lstm2"
  bottom: "cont_sentence"
  top: "lstm3"
  name: "lstm3"
  type: LSTM
  lstm_param {
    hidden_dim: 1000
    buffer_size: 1
  }
}
layers {
  bottom: "lstm3"
  bottom: "cont_sentence"
  top: "lstm4"
  name: "lstm4"
  type: LSTM
  lstm_param {
    hidden_dim: 1000
    buffer_size: 1
  }
}
layers {
  bottom: "lstm4"
  top: "predict"
  name: "predict"
  type: INNER_PRODUCT
  blobs_lr: 1
  blobs_lr: 2
  weight_decay: 1
  weight_decay: 0
  inner_product_param {
    num_output: 41719
  }
}
layers {
  bottom: "predict"
  top: "probs"
  name: "probs"
  type: SOFTMAX
}
input: "image_features"
input: "cont_sentence"
input: "input_sentence"
input_dim: 1
input_dim: 1000
input_dim: 1
input_dim: 1
input_dim: 1
input_dim: 1
input_dim: 1
input_dim: 1
input_dim: 1
input_dim: 1
input_dim: 1
input_dim: 1
I1112 13:06:09.422235  8383 net.cpp:362] Input 0 -> image_features
I1112 13:06:09.422266  8383 net.cpp:362] Input 1 -> cont_sentence
I1112 13:06:09.422282  8383 net.cpp:362] Input 2 -> input_sentence
I1112 13:06:09.422304  8383 layer_factory.hpp:78] Creating layer cont_sentence_input_1_split
I1112 13:06:09.422322  8383 net.cpp:68] Creating Layer cont_sentence_input_1_split
I1112 13:06:09.422335  8383 net.cpp:398] cont_sentence_input_1_split <- cont_sentence
I1112 13:06:09.422351  8383 net.cpp:360] cont_sentence_input_1_split -> cont_sentence_input_1_split_0
I1112 13:06:09.422372  8383 net.cpp:360] cont_sentence_input_1_split -> cont_sentence_input_1_split_1
I1112 13:06:09.422390  8383 net.cpp:360] cont_sentence_input_1_split -> cont_sentence_input_1_split_2
I1112 13:06:09.422406  8383 net.cpp:360] cont_sentence_input_1_split -> cont_sentence_input_1_split_3
I1112 13:06:09.422421  8383 net.cpp:97] Setting up cont_sentence_input_1_split
I1112 13:06:09.422444  8383 net.cpp:104] Top shape: 1 1 1 1 (1)
I1112 13:06:09.422458  8383 net.cpp:104] Top shape: 1 1 1 1 (1)
I1112 13:06:09.422471  8383 net.cpp:104] Top shape: 1 1 1 1 (1)
I1112 13:06:09.422483  8383 net.cpp:104] Top shape: 1 1 1 1 (1)
I1112 13:06:09.422500  8383 layer_factory.hpp:78] Creating layer embedding
I1112 13:06:09.422516  8383 net.cpp:68] Creating Layer embedding
I1112 13:06:09.422529  8383 net.cpp:398] embedding <- input_sentence
I1112 13:06:09.422547  8383 net.cpp:360] embedding -> embedded_input_sentence
I1112 13:06:09.422564  8383 net.cpp:97] Setting up embedding
I1112 13:06:09.580683  8383 net.cpp:104] Top shape: 1 1000 1 1 (1000)
I1112 13:06:09.580760  8383 layer_factory.hpp:78] Creating layer lstm1
I1112 13:06:09.580791  8383 net.cpp:68] Creating Layer lstm1
I1112 13:06:09.580811  8383 net.cpp:398] lstm1 <- embedded_input_sentence
I1112 13:06:09.580832  8383 net.cpp:398] lstm1 <- cont_sentence_input_1_split_0
I1112 13:06:09.580850  8383 net.cpp:360] lstm1 -> lstm1
I1112 13:06:09.580876  8383 net.cpp:97] Setting up lstm1
I1112 13:06:09.580920  8383 lstm_layer.cpp:79] Initializing LSTM: assuming input batch contains 1 timesteps of 1 streams.
I1112 13:06:09.581135  8383 net.cpp:39] Initializing net from parameters:
layers {
  bottom: "flush"
  top: "flush_0"
  name: "lstm1_flush slice"
  type: SLICE
  slice_param {
    slice_dim: 0
  }
}
layers {
  bottom: "x"
  top: "x_transformed"
  name: "lstm1_x_transform"
  type: INNER_PRODUCT
  inner_product_param {
    num_output: 4000
    bias_term: true
    weight_filler {
    }
    bias_filler {
    }
  }
  param: "W_xc"
  param: "b"
}
layers {
  bottom: "x_transformed"
  top: "x_transformed_1"
  name: "lstm1_x_transformed_slice"
  type: SLICE
  slice_param {
    slice_dim: 0
  }
}
layers {
  bottom: "h_0"
  bottom: "flush_0"
  top: "h_0_flushed"
  name: "lstm1_h_0 flush"
  type: ELTWISE
  eltwise_param {
    operation: SUM
    coeff_blob: true
  }
}
layers {
  bottom: "h_0_flushed"
  top: "h_transformed_0"
  name: "lstm1_transform_1"
  type: INNER_PRODUCT
  inner_product_param {
    num_output: 4000
    bias_term: false
    weight_filler {
    }
  }
  param: "W_hc"
}
layers {
  bottom: "x_transformed_1"
  bottom: "h_transformed_0"
  top: "gate_input_1"
  name: "lstm1_input_sum_1"
  type: ELTWISE
  eltwise_param {
    operation: SUM
  }
}
layers {
  bottom: "c_0"
  bottom: "gate_input_1"
  bottom: "flush_0"
  top: "c_1"
  top: "h_1"
  name: "lstm1_unit_1"
  type: LSTM_UNIT
}
layers {
  bottom: "c_1"
  top: "c_T"
  name: "lstm1_"
  type: SPLIT
}
layers {
  bottom: "h_1"
  top: "h"
  name: "lstm1_h_concat"
  type: CONCAT
  concat_param {
    concat_dim: 0
  }
  has_external_diff: true
}
input: "x"
input: "flush"
input: "c_0"
input: "h_0"
input_dim: 1
input_dim: 1000
input_dim: 1
input_dim: 1
input_dim: 1
input_dim: 1
input_dim: 1
input_dim: 1
input_dim: 1
input_dim: 1000
input_dim: 1
input_dim: 1
input_dim: 1
input_dim: 1000
input_dim: 1
input_dim: 1
force_backward: true
I1112 13:06:09.581913  8383 net.cpp:362] Input 0 -> x
I1112 13:06:09.581935  8383 net.cpp:362] Input 1 -> flush
I1112 13:06:09.581950  8383 net.cpp:362] Input 2 -> c_0
I1112 13:06:09.581964  8383 net.cpp:362] Input 3 -> h_0
I1112 13:06:09.581984  8383 layer_factory.hpp:78] Creating layer lstm1_flush slice
I1112 13:06:09.582000  8383 net.cpp:68] Creating Layer lstm1_flush slice
I1112 13:06:09.582013  8383 net.cpp:398] lstm1_flush slice <- flush
I1112 13:06:09.582028  8383 net.cpp:360] lstm1_flush slice -> flush_0
I1112 13:06:09.582046  8383 net.cpp:97] Setting up lstm1_flush slice
I1112 13:06:09.582063  8383 net.cpp:104] Top shape: 1 1 1 1 (1)
I1112 13:06:09.582077  8383 layer_factory.hpp:78] Creating layer flush_0_lstm1_flush slice_0_split
I1112 13:06:09.582092  8383 net.cpp:68] Creating Layer flush_0_lstm1_flush slice_0_split
I1112 13:06:09.582103  8383 net.cpp:398] flush_0_lstm1_flush slice_0_split <- flush_0
I1112 13:06:09.582118  8383 net.cpp:360] flush_0_lstm1_flush slice_0_split -> flush_0_lstm1_flush slice_0_split_0
I1112 13:06:09.582135  8383 net.cpp:360] flush_0_lstm1_flush slice_0_split -> flush_0_lstm1_flush slice_0_split_1
I1112 13:06:09.582150  8383 net.cpp:97] Setting up flush_0_lstm1_flush slice_0_split
I1112 13:06:09.582164  8383 net.cpp:104] Top shape: 1 1 1 1 (1)
I1112 13:06:09.582175  8383 net.cpp:104] Top shape: 1 1 1 1 (1)
I1112 13:06:09.582187  8383 layer_factory.hpp:78] Creating layer lstm1_x_transform
I1112 13:06:09.582204  8383 net.cpp:68] Creating Layer lstm1_x_transform
I1112 13:06:09.582216  8383 net.cpp:398] lstm1_x_transform <- x
I1112 13:06:09.582231  8383 net.cpp:360] lstm1_x_transform -> x_transformed
I1112 13:06:09.582248  8383 net.cpp:97] Setting up lstm1_x_transform
I1112 13:06:09.597332  8383 net.cpp:104] Top shape: 1 4000 1 1 (4000)
I1112 13:06:09.597388  8383 layer_factory.hpp:78] Creating layer lstm1_x_transformed_slice
I1112 13:06:09.597411  8383 net.cpp:68] Creating Layer lstm1_x_transformed_slice
I1112 13:06:09.597429  8383 net.cpp:398] lstm1_x_transformed_slice <- x_transformed
I1112 13:06:09.597450  8383 net.cpp:360] lstm1_x_transformed_slice -> x_transformed_1
I1112 13:06:09.597472  8383 net.cpp:97] Setting up lstm1_x_transformed_slice
I1112 13:06:09.597487  8383 net.cpp:104] Top shape: 1 4000 1 1 (4000)
I1112 13:06:09.597502  8383 layer_factory.hpp:78] Creating layer lstm1_h_0 flush
I1112 13:06:09.597519  8383 net.cpp:68] Creating Layer lstm1_h_0 flush
I1112 13:06:09.597532  8383 net.cpp:398] lstm1_h_0 flush <- h_0
I1112 13:06:09.597545  8383 net.cpp:398] lstm1_h_0 flush <- flush_0_lstm1_flush slice_0_split_0
I1112 13:06:09.597568  8383 net.cpp:360] lstm1_h_0 flush -> h_0_flushed
I1112 13:06:09.597587  8383 net.cpp:97] Setting up lstm1_h_0 flush
I1112 13:06:09.597605  8383 net.cpp:104] Top shape: 1 1000 1 1 (1000)
I1112 13:06:09.597617  8383 layer_factory.hpp:78] Creating layer lstm1_transform_1
I1112 13:06:09.597633  8383 net.cpp:68] Creating Layer lstm1_transform_1
I1112 13:06:09.597646  8383 net.cpp:398] lstm1_transform_1 <- h_0_flushed
I1112 13:06:09.597661  8383 net.cpp:360] lstm1_transform_1 -> h_transformed_0
I1112 13:06:09.597678  8383 net.cpp:97] Setting up lstm1_transform_1
I1112 13:06:09.613220  8383 net.cpp:104] Top shape: 1 4000 1 1 (4000)
I1112 13:06:09.613284  8383 layer_factory.hpp:78] Creating layer lstm1_input_sum_1
I1112 13:06:09.613312  8383 net.cpp:68] Creating Layer lstm1_input_sum_1
I1112 13:06:09.613358  8383 net.cpp:398] lstm1_input_sum_1 <- x_transformed_1
I1112 13:06:09.613378  8383 net.cpp:398] lstm1_input_sum_1 <- h_transformed_0
I1112 13:06:09.613410  8383 net.cpp:360] lstm1_input_sum_1 -> gate_input_1
I1112 13:06:09.613431  8383 net.cpp:97] Setting up lstm1_input_sum_1
I1112 13:06:09.613446  8383 net.cpp:104] Top shape: 1 4000 1 1 (4000)
I1112 13:06:09.613458  8383 layer_factory.hpp:78] Creating layer lstm1_unit_1
I1112 13:06:09.613473  8383 net.cpp:68] Creating Layer lstm1_unit_1
I1112 13:06:09.613486  8383 net.cpp:398] lstm1_unit_1 <- c_0
I1112 13:06:09.613499  8383 net.cpp:398] lstm1_unit_1 <- gate_input_1
I1112 13:06:09.613512  8383 net.cpp:398] lstm1_unit_1 <- flush_0_lstm1_flush slice_0_split_1
I1112 13:06:09.613528  8383 net.cpp:360] lstm1_unit_1 -> c_1
I1112 13:06:09.613543  8383 net.cpp:360] lstm1_unit_1 -> h_1
I1112 13:06:09.613559  8383 net.cpp:97] Setting up lstm1_unit_1
I1112 13:06:09.613579  8383 net.cpp:104] Top shape: 1 1000 1 1 (1000)
I1112 13:06:09.613592  8383 net.cpp:104] Top shape: 1 1000 1 1 (1000)
I1112 13:06:09.613605  8383 layer_factory.hpp:78] Creating layer lstm1_
I1112 13:06:09.613621  8383 net.cpp:68] Creating Layer lstm1_
I1112 13:06:09.613633  8383 net.cpp:398] lstm1_ <- c_1
I1112 13:06:09.613648  8383 net.cpp:360] lstm1_ -> c_T
I1112 13:06:09.613664  8383 net.cpp:97] Setting up lstm1_
I1112 13:06:09.613677  8383 net.cpp:104] Top shape: 1 1000 1 1 (1000)
I1112 13:06:09.613689  8383 layer_factory.hpp:78] Creating layer lstm1_h_concat
I1112 13:06:09.613704  8383 net.cpp:68] Creating Layer lstm1_h_concat
I1112 13:06:09.613718  8383 net.cpp:398] lstm1_h_concat <- h_1
I1112 13:06:09.613733  8383 net.cpp:360] lstm1_h_concat -> h
I1112 13:06:09.613747  8383 net.cpp:97] Setting up lstm1_h_concat
I1112 13:06:09.613764  8383 net.cpp:104] Top shape: 1 1000 1 1 (1000)
I1112 13:06:09.613776  8383 net.cpp:172] lstm1_h_concat needs backward computation.
I1112 13:06:09.613788  8383 net.cpp:174] lstm1_ does not need backward computation.
I1112 13:06:09.613801  8383 net.cpp:172] lstm1_unit_1 needs backward computation.
I1112 13:06:09.613812  8383 net.cpp:172] lstm1_input_sum_1 needs backward computation.
I1112 13:06:09.613826  8383 net.cpp:172] lstm1_transform_1 needs backward computation.
…
I1112 13:06:09.613908  8383 net.cpp:210] This network produces output c_T
I1112 13:06:09.613919  8383 net.cpp:210] This network produces output h
I1112 13:06:09.613960  8383 net.cpp:470] Collecting Learning Rate and Weight Decay.
I1112 13:06:09.613976  8383 net.cpp:223] Network initialization done.
I1112 13:06:09.613987  8383 net.cpp:224] Memory required for data: 84012
I1112 13:06:09.614043  8383 lstm_layer.cpp:237] Adding parameter 0: W_xc
I1112 13:06:09.614058  8383 lstm_layer.cpp:237] Adding parameter 1: b
I1112 13:06:09.614071  8383 lstm_layer.cpp:237] Adding parameter 2: W_hc
I1112 13:06:09.614109  8383 net.cpp:104] Top shape: 1 1000 1 1 (1000)
I1112 13:06:09.614133  8383 layer_factory.hpp:78] Creating layer lstm2_input
I1112 13:06:09.614151  8383 net.cpp:68] Creating Layer lstm2_input
I1112 13:06:09.614164  8383 net.cpp:398] lstm2_input <- lstm1
I1112 13:06:09.614178  8383 net.cpp:398] lstm2_input <- image_features
I1112 13:06:09.614192  8383 net.cpp:360] lstm2_input -> lstm2_input
I1112 13:06:09.614207  8383 net.cpp:97] Setting up lstm2_input
I1112 13:06:09.614220  8383 net.cpp:104] Top shape: 1 2000 1 1 (2000)
I1112 13:06:09.614233  8383 layer_factory.hpp:78] Creating layer lstm2
I1112 13:06:09.614250  8383 net.cpp:68] Creating Layer lstm2
I1112 13:06:09.614262  8383 net.cpp:398] lstm2 <- lstm2_input
I1112 13:06:09.614276  8383 net.cpp:398] lstm2 <- cont_sentence_input_1_split_1
I1112 13:06:09.614290  8383 net.cpp:360] lstm2 -> lstm2
I1112 13:06:09.614306  8383 net.cpp:97] Setting up lstm2
I1112 13:06:09.614326  8383 lstm_layer.cpp:79] Initializing LSTM: assuming input batch contains 1 timesteps of 1 streams.
I1112 13:06:09.614490  8383 net.cpp:39] Initializing net from parameters:
layers {
  bottom: "flush"
  top: "flush_0"
  name: "lstm2_flush slice"
  type: SLICE
  slice_param {
    slice_dim: 0
  }
}
layers {
  bottom: "x"
  top: "x_transformed"
  name: "lstm2_x_transform"
  type: INNER_PRODUCT
  inner_product_param {
    num_output: 4000
    bias_term: true
    weight_filler {
    }
    bias_filler {
    }
  }
  param: "W_xc"
  param: "b"
}
layers {
  bottom: "x_transformed"
  top: "x_transformed_1"
  name: "lstm2_x_transformed_slice"
  type: SLICE
  slice_param {
    slice_dim: 0
  }
}
layers {
  bottom: "h_0"
  bottom: "flush_0"
  top: "h_0_flushed"
  name: "lstm2_h_0 flush"
  type: ELTWISE
  eltwise_param {
    operation: SUM
    coeff_blob: true
  }
}
layers {
  bottom: "h_0_flushed"
  top: "h_transformed_0"
  name: "lstm2_transform_1"
  type: INNER_PRODUCT
  inner_product_param {
    num_output: 4000
    bias_term: false
    weight_filler {
    }
  }
  param: "W_hc"
}
layers {
  bottom: "x_transformed_1"
  bottom: "h_transformed_0"
  top: "gate_input_1"
  name: "lstm2_input_sum_1"
  type: ELTWISE
  eltwise_param {
    operation: SUM
  }
}
layers {
  bottom: "c_0"
  bottom: "gate_input_1"
  bottom: "flush_0"
  top: "c_1"
  top: "h_1"
  name: "lstm2_unit_1"
  type: LSTM_UNIT
}
layers {
  bottom: "c_1"
  top: "c_T"
  name: "lstm2_"
  type: SPLIT
}
layers {
  bottom: "h_1"
  top: "h"
  name: "lstm2_h_concat"
  type: CONCAT
  concat_param {
    concat_dim: 0
  }
  has_external_diff: true
}
input: "x"
input: "flush"
input: "c_0"
input: "h_0"
input_dim: 1
input_dim: 2000
input_dim: 1
input_dim: 1
input_dim: 1
input_dim: 1
input_dim: 1
input_dim: 1
input_dim: 1
input_dim: 1000
input_dim: 1
input_dim: 1
input_dim: 1
input_dim: 1000
input_dim: 1
input_dim: 1
force_backward: true
I1112 13:06:09.615084  8383 net.cpp:362] Input 0 -> x
I1112 13:06:09.615105  8383 net.cpp:362] Input 1 -> flush
I1112 13:06:09.615120  8383 net.cpp:362] Input 2 -> c_0
I1112 13:06:09.615134  8383 net.cpp:362] Input 3 -> h_0
I1112 13:06:09.615154  8383 layer_factory.hpp:78] Creating layer lstm2_flush slice
I1112 13:06:09.615170  8383 net.cpp:68] Creating Layer lstm2_flush slice
I1112 13:06:09.615181  8383 net.cpp:398] lstm2_flush slice <- flush
I1112 13:06:09.615197  8383 net.cpp:360] lstm2_flush slice -> flush_0
I1112 13:06:09.615213  8383 net.cpp:97] Setting up lstm2_flush slice
I1112 13:06:09.615228  8383 net.cpp:104] Top shape: 1 1 1 1 (1)
I1112 13:06:09.615241  8383 layer_factory.hpp:78] Creating layer flush_0_lstm2_flush slice_0_split
I1112 13:06:09.615253  8383 net.cpp:68] Creating Layer flush_0_lstm2_flush slice_0_split
I1112 13:06:09.615265  8383 net.cpp:398] flush_0_lstm2_flush slice_0_split <- flush_0
I1112 13:06:09.615279  8383 net.cpp:360] flush_0_lstm2_flush slice_0_split -> flush_0_lstm2_flush slice_0_split_0
I1112 13:06:09.615304  8383 net.cpp:360] flush_0_lstm2_flush slice_0_split -> flush_0_lstm2_flush slice_0_split_1
I1112 13:06:09.615320  8383 net.cpp:97] Setting up flush_0_lstm2_flush slice_0_split
I1112 13:06:09.615334  8383 net.cpp:104] Top shape: 1 1 1 1 (1)
I1112 13:06:09.615345  8383 net.cpp:104] Top shape: 1 1 1 1 (1)
I1112 13:06:09.615356  8383 layer_factory.hpp:78] Creating layer lstm2_x_transform
I1112 13:06:09.615371  8383 net.cpp:68] Creating Layer lstm2_x_transform
I1112 13:06:09.615383  8383 net.cpp:398] lstm2_x_transform <- x
I1112 13:06:09.615401  8383 net.cpp:360] lstm2_x_transform -> x_transformed
I1112 13:06:09.615417  8383 net.cpp:97] Setting up lstm2_x_transform
I1112 13:06:09.646631  8383 net.cpp:104] Top shape: 1 4000 1 1 (4000)
I1112 13:06:09.646708  8383 layer_factory.hpp:78] Creating layer lstm2_x_transformed_slice
I1112 13:06:09.646735  8383 net.cpp:68] Creating Layer lstm2_x_transformed_slice
I1112 13:06:09.646752  8383 net.cpp:398] lstm2_x_transformed_slice <- x_transformed
I1112 13:06:09.646778  8383 net.cpp:360] lstm2_x_transformed_slice -> x_transformed_1
I1112 13:06:09.646803  8383 net.cpp:97] Setting up lstm2_x_transformed_slice
I1112 13:06:09.646818  8383 net.cpp:104] Top shape: 1 4000 1 1 (4000)
I1112 13:06:09.646834  8383 layer_factory.hpp:78] Creating layer lstm2_h_0 flush
I1112 13:06:09.646872  8383 net.cpp:68] Creating Layer lstm2_h_0 flush
I1112 13:06:09.646891  8383 net.cpp:398] lstm2_h_0 flush <- h_0
I1112 13:06:09.646909  8383 net.cpp:398] lstm2_h_0 flush <- flush_0_lstm2_flush slice_0_split_0
I1112 13:06:09.646925  8383 net.cpp:360] lstm2_h_0 flush -> h_0_flushed
I1112 13:06:09.646944  8383 net.cpp:97] Setting up lstm2_h_0 flush
I1112 13:06:09.646960  8383 net.cpp:104] Top shape: 1 1000 1 1 (1000)
I1112 13:06:09.646973  8383 layer_factory.hpp:78] Creating layer lstm2_transform_1
I1112 13:06:09.646991  8383 net.cpp:68] Creating Layer lstm2_transform_1
I1112 13:06:09.647004  8383 net.cpp:398] lstm2_transform_1 <- h_0_flushed
I1112 13:06:09.647022  8383 net.cpp:360] lstm2_transform_1 -> h_transformed_0
I1112 13:06:09.647042  8383 net.cpp:97] Setting up lstm2_transform_1
I1112 13:06:09.662611  8383 net.cpp:104] Top shape: 1 4000 1 1 (4000)
I1112 13:06:09.662673  8383 layer_factory.hpp:78] Creating layer lstm2_input_sum_1
I1112 13:06:09.662700  8383 net.cpp:68] Creating Layer lstm2_input_sum_1
I1112 13:06:09.662717  8383 net.cpp:398] lstm2_input_sum_1 <- x_transformed_1
I1112 13:06:09.662736  8383 net.cpp:398] lstm2_input_sum_1 <- h_transformed_0
I1112 13:06:09.662755  8383 net.cpp:360] lstm2_input_sum_1 -> gate_input_1
I1112 13:06:09.662911  8383 net.cpp:97] Setting up lstm2_input_sum_1
I1112 13:06:09.662930  8383 net.cpp:104] Top shape: 1 4000 1 1 (4000)
I1112 13:06:09.662941  8383 layer_factory.hpp:78] Creating layer lstm2_unit_1
I1112 13:06:09.662967  8383 net.cpp:68] Creating Layer lstm2_unit_1
I1112 13:06:09.662982  8383 net.cpp:398] lstm2_unit_1 <- c_0
I1112 13:06:09.663002  8383 net.cpp:398] lstm2_unit_1 <- gate_input_1
I1112 13:06:09.663022  8383 net.cpp:398] lstm2_unit_1 <- flush_0_lstm2_flush slice_0_split_1
I1112 13:06:09.663038  8383 net.cpp:360] lstm2_unit_1 -> c_1
I1112 13:06:09.663054  8383 net.cpp:360] lstm2_unit_1 -> h_1
I1112 13:06:09.663069  8383 net.cpp:97] Setting up lstm2_unit_1
I1112 13:06:09.663084  8383 net.cpp:104] Top shape: 1 1000 1 1 (1000)
I1112 13:06:09.663096  8383 net.cpp:104] Top shape: 1 1000 1 1 (1000)
I1112 13:06:09.663108  8383 layer_factory.hpp:78] Creating layer lstm2_
I1112 13:06:09.663127  8383 net.cpp:68] Creating Layer lstm2_
I1112 13:06:09.663141  8383 net.cpp:398] lstm2_ <- c_1
I1112 13:06:09.663154  8383 net.cpp:360] lstm2_ -> c_T
I1112 13:06:09.663169  8383 net.cpp:97] Setting up lstm2_
I1112 13:06:09.663182  8383 net.cpp:104] Top shape: 1 1000 1 1 (1000)
I1112 13:06:09.663194  8383 layer_factory.hpp:78] Creating layer lstm2_h_concat
I1112 13:06:09.663209  8383 net.cpp:68] Creating Layer lstm2_h_concat
I1112 13:06:09.663221  8383 net.cpp:398] lstm2_h_concat <- h_1
I1112 13:06:09.663239  8383 net.cpp:360] lstm2_h_concat -> h
I1112 13:06:09.663255  8383 net.cpp:97] Setting up lstm2_h_concat
I1112 13:06:09.663269  8383 net.cpp:104] Top shape: 1 1000 1 1 (1000)
I1112 13:06:09.663281  8383 net.cpp:172] lstm2_h_concat needs backward computation.
I1112 13:06:09.663293  8383 net.cpp:174] lstm2_ does not need backward computation.
I1112 13:06:09.663305  8383 net.cpp:172] lstm2_unit_1 needs backward computation.
I1112 13:06:09.663318  8383 net.cpp:172] lstm2_input_sum_1 needs backward computation.
I1112 13:06:09.663332  8383 net.cpp:172] lstm2_transform_1 needs backward computation.
…
